last:

Model: "sequential_42"
_________________________________________________________________
Layer (type)                 Output Shape              Param #   
=================================================================
conv2d_170 (Conv2D)          (None, 88, 172, 16)       160       
_________________________________________________________________
max_pooling2d_169 (MaxPoolin (None, 44, 86, 16)        0         
_________________________________________________________________
dropout_167 (Dropout)        (None, 44, 86, 16)        0         
_________________________________________________________________
conv2d_171 (Conv2D)          (None, 42, 84, 32)        4640      
_________________________________________________________________
max_pooling2d_170 (MaxPoolin (None, 21, 42, 32)        0         
_________________________________________________________________
dropout_168 (Dropout)        (None, 21, 42, 32)        0         
_________________________________________________________________
conv2d_172 (Conv2D)          (None, 20, 41, 64)        8256      
_________________________________________________________________
max_pooling2d_171 (MaxPoolin (None, 10, 20, 64)        0         
_________________________________________________________________
dropout_169 (Dropout)        (None, 10, 20, 64)        0         
_________________________________________________________________
conv2d_173 (Conv2D)          (None, 9, 19, 128)        32896     
_________________________________________________________________
max_pooling2d_172 (MaxPoolin (None, 4, 9, 128)         0         
_________________________________________________________________
dropout_170 (Dropout)        (None, 4, 9, 128)         0         
_________________________________________________________________
global_average_pooling2d_39  (None, 128)               0         
_________________________________________________________________
dense_41 (Dense)             (None, 3)                 387       
=================================================================
Total params: 46,339
Trainable params: 46,339
Non-trainable params: 0
_________________________________________________________________
276/276 [==============================] - 1s 3ms/step
Pre-training accuracy: 51.8116%
